…
      "text/plain": [
       "<IPython.core.display.HTML object>"
      ]
     },
     "metadata": {},
     "output_type": "display_data"
    }
   ],
   "source": [
    "data.show_batch(rows=5)"
   ]
  },
  {
   "cell_type": "code",
   "execution_count": 16,
   "metadata": {},
   "outputs": [],
   "source": [
    "learn = tabular_learner(data, layers=[400,100], metrics=accuracy, emb_drop=0.5)"
   ]
  },
  {
   "cell_type": "code",
   "execution_count": 17,
   "metadata": {},
   "outputs": [
    {
     "data": {
      "text/plain": [
       "TabularModel(\n",
       "  (embeds): ModuleList(\n",
       "    (0): Embedding(246, 35)\n",
       "    (1): Embedding(3, 3)\n",
       "    (2): Embedding(3, 3)\n",
       "    (3): Embedding(3, 3)\n",
       "    (4): Embedding(3, 3)\n",
       "    (5): Embedding(3, 3)\n",
       "    (6): Embedding(3, 3)\n",
       "    (7): Embedding(3, 3)\n",
       "    (8): Embedding(3, 3)\n",
       "  )\n",
       "  (emb_drop): Dropout(p=0.5)\n",
       "  (bn_cont): BatchNorm1d(72, eps=1e-05, momentum=0.1, affine=True, track_running_stats=True)\n",
       "  (layers): Sequential(\n",
       "    (0): Linear(in_features=131, out_features=400, bias=True)\n",
       "    (1): ReLU(inplace)\n",
       "    (2): BatchNorm1d(400, eps=1e-05, momentum=0.1, affine=True, track_running_stats=True)\n",
       "    (3): Linear(in_features=400, out_features=100, bias=True)\n",
       "    (4): ReLU(inplace)\n",
       "    (5): BatchNorm1d(100, eps=1e-05, momentum=0.1, affine=True, track_running_stats=True)\n",
       "    (6): Linear(in_features=100, out_features=3, bias=True)\n",
       "  )\n",
       ")"
      ]
     },
     "execution_count": 17,
     "metadata": {},
     "output_type": "execute_result"
    }
   ],
   "source": [
    "learn.model"
   ]
  },
  {
   "cell_type": "code",
   "execution_count": 18,
   "metadata": {},
   "outputs": [
    {
     "data": {
      "text/html": [
       "Total time: 00:02 <p><table border=\"1\" class=\"dataframe\">\n",
…
